…
==========================================================================================================================================================================================================================================================
[2025-05-11 18:12:18] - Training/device: device=cuda:1, torch.cuda.set_devicecuda:1 
[2025-05-11 18:12:25] - instances/load_pkl: load instance from /remote-home/iot_wangrongkai/FJSP-LLM-250327/20241229-DTr-FJSP/MOFJSP-DRL/instance/test_Instance_J6M6E2.pkl.pkl' 
[2025-05-11 18:12:25] - Testing/instance: ========== test_instance.t[-1]=(36, 6) ========== 
[2025-05-11 18:12:26] - Training/ppo/init_job_encoder: GIN + MLP: self.encoder=Encoder(
  (feature_extract): GraphCNN(
    (mlps): ModuleList(
      (0): MLP(
        (linears): ModuleList(
          (0): Linear(in_features=12, out_features=128, bias=True)
          (1): Linear(in_features=128, out_features=128, bias=True)
          (2): Linear(in_features=128, out_features=128, bias=True)
        )
        (batch_norms): ModuleList(
          (0): BatchNorm1d(128, eps=1e-05, momentum=0.1, affine=True, track_running_stats=True)
          (1): BatchNorm1d(128, eps=1e-05, momentum=0.1, affine=True, track_running_stats=True)
        )
      )
      (1): MLP(
        (linears): ModuleList(
          (0): Linear(in_features=128, out_features=128, bias=True)
          (1): Linear(in_features=128, out_features=128, bias=True)
          (2): Linear(in_features=128, out_features=128, bias=True)
        )
        (batch_norms): ModuleList(
          (0): BatchNorm1d(128, eps=1e-05, momentum=0.1, affine=True, track_running_stats=True)
          (1): BatchNorm1d(128, eps=1e-05, momentum=0.1, affine=True, track_running_stats=True)
        )
      )
    )
    (bn): BatchNorm1d(12, eps=1e-05, momentum=0.1, affine=True, track_running_stats=True)
    (batch_norms): ModuleList(
      (0): BatchNorm1d(128, eps=1e-05, momentum=0.1, affine=True, track_running_stats=True)
      (1): BatchNorm1d(128, eps=1e-05, momentum=0.1, affine=True, track_running_stats=True)
    )
  )
) 
[2025-05-11 18:12:26] - Training/ppo/init_job_actor: MLP: self.o_policy=MLPActor(
  (linears): ModuleList(
    (0): Linear(in_features=384, out_features=128, bias=True)
    (1): Linear(in_features=128, out_features=128, bias=True)
    (2): Linear(in_features=128, out_features=1, bias=True)
  )
) 
[2025-05-11 18:12:26] - Training/ppo/init_job_critic: MLP: self.job_critic=MLPCritic(
  (linears): ModuleList(
    (0): Linear(in_features=128, out_features=128, bias=True)
    (1): Linear(in_features=128, out_features=128, bias=True)
    (2): Linear(in_features=128, out_features=2, bias=True)
  )
) 
[2025-05-11 18:12:26] - Training/ppo/init_machine_GAT: GAT+Linear: self.gat_layer=GATLayer(
  (leakyrelu): LeakyReLU(negative_slope=0.2)
  (softmax): Softmax(dim=1)
) 
[2025-05-11 18:12:26] - Training/ppo/init_machine_actor: MLP: self.fcl_pooling=Linear(in_features=128, out_features=128, bias=False), self.m_policy=MLPActor(
  (linears): ModuleList(
    (0): Linear(in_features=384, out_features=128, bias=True)
    (1): Linear(in_features=128, out_features=128, bias=True)
    (2): Linear(in_features=128, out_features=1, bias=True)
  )
) 
[2025-05-11 18:12:26] - Training/ppo/init_machine_critic: MLP: self.machine_critic=MLPCritic(
  (linears): ModuleList(
    (0): Linear(in_features=128, out_features=128, bias=True)
    (1): Linear(in_features=128, out_features=128, bias=True)
    (2): Linear(in_features=128, out_features=2, bias=True)
  )
) 
[2025-05-11 18:12:26] - Training/ppo/init_global_critic_encoder: Global_Critic: self.encoder=Encoder(
  (feature_extract): GraphCNN(
    (mlps): ModuleList(
      (0): MLP(
        (linears): ModuleList(
          (0): Linear(in_features=12, out_features=128, bias=True)
          (1): Linear(in_features=128, out_features=128, bias=True)
          (2): Linear(in_features=128, out_features=128, bias=True)
        )
        (batch_norms): ModuleList(
          (0): BatchNorm1d(128, eps=1e-05, momentum=0.1, affine=True, track_running_stats=True)
          (1): BatchNorm1d(128, eps=1e-05, momentum=0.1, affine=True, track_running_stats=True)
        )
      )
      (1): MLP(
        (linears): ModuleList(
          (0): Linear(in_features=128, out_features=128, bias=True)
          (1): Linear(in_features=128, out_features=128, bias=True)
          (2): Linear(in_features=128, out_features=128, bias=True)
        )
        (batch_norms): ModuleList(
          (0): BatchNorm1d(128, eps=1e-05, momentum=0.1, affine=True, track_running_stats=True)
          (1): BatchNorm1d(128, eps=1e-05, momentum=0.1, affine=True, track_running_stats=True)
        )
      )
    )
    (bn): BatchNorm1d(12, eps=1e-05, momentum=0.1, affine=True, track_running_stats=True)
    (batch_norms): ModuleList(
      (0): BatchNorm1d(128, eps=1e-05, momentum=0.1, affine=True, track_running_stats=True)
      (1): BatchNorm1d(128, eps=1e-05, momentum=0.1, affine=True, track_running_stats=True)
    )
  )
) 
[2025-05-11 18:12:26] - Training/ppo/init_global_gat_layer: Global_Critic: self.gat_layer=GATLayer(
  (leakyrelu): LeakyReLU(negative_slope=0.2)
  (softmax): Softmax(dim=1)
) 
[2025-05-11 18:12:26] - Training/ppo/network_architecture: Operation_Actor: self.job_actor=Operation_Actor_JointAction_selfCritic(
  (encoder): Encoder(
    (feature_extract): GraphCNN(
      (mlps): ModuleList(
        (0): MLP(
          (linears): ModuleList(
            (0): Linear(in_features=12, out_features=128, bias=True)
            (1): Linear(in_features=128, out_features=128, bias=True)
            (2): Linear(in_features=128, out_features=128, bias=True)
          )
          (batch_norms): ModuleList(
            (0): BatchNorm1d(128, eps=1e-05, momentum=0.1, affine=True, track_running_stats=True)
            (1): BatchNorm1d(128, eps=1e-05, momentum=0.1, affine=True, track_running_stats=True)
          )
        )
        (1): MLP(
          (linears): ModuleList(
            (0): Linear(in_features=128, out_features=128, bias=True)
            (1): Linear(in_features=128, out_features=128, bias=True)
            (2): Linear(in_features=128, out_features=128, bias=True)
          )
          (batch_norms): ModuleList(
            (0): BatchNorm1d(128, eps=1e-05, momentum=0.1, affine=True, track_running_stats=True)
            (1): BatchNorm1d(128, eps=1e-05, momentum=0.1, affine=True, track_running_stats=True)
          )
        )
      )
      (bn): BatchNorm1d(12, eps=1e-05, momentum=0.1, affine=True, track_running_stats=True)
      (batch_norms): ModuleList(
        (0): BatchNorm1d(128, eps=1e-05, momentum=0.1, affine=True, track_running_stats=True)
        (1): BatchNorm1d(128, eps=1e-05, momentum=0.1, affine=True, track_running_stats=True)
      )
    )
  )
  (o_policy): MLPActor(
    (linears): ModuleList(
      (0): Linear(in_features=384, out_features=128, bias=True)
      (1): Linear(in_features=128, out_features=128, bias=True)
      (2): Linear(in_features=128, out_features=1, bias=True)
    )
  )
  (job_critic): MLPCritic(
    (linears): ModuleList(
      (0): Linear(in_features=128, out_features=128, bias=True)
      (1): Linear(in_features=128, out_features=128, bias=True)
      (2): Linear(in_features=128, out_features=2, bias=True)
    )
  )
), Machine_Actor: self.machine_actor_gcn=Machine_Actor_JointAction_selfGAT_selfCritic(
  (bn): BatchNorm1d(128, eps=1e-05, momentum=0.1, affine=True, track_running_stats=True)
  (m_fea_1_fcl): Linear(in_features=6, out_features=128, bias=False)
  (m_fea_2_fcl): Linear(in_features=8, out_features=128, bias=False)
  (activation): ELU(alpha=1.0)
  (gat_layer): GATLayer(
    (leakyrelu): LeakyReLU(negative_slope=0.2)
    (softmax): Softmax(dim=1)
  )
  (fcl_pooling): Linear(in_features=128, out_features=128, bias=False)
  (m_policy): MLPActor(
    (linears): ModuleList(
      (0): Linear(in_features=384, out_features=128, bias=True)
      (1): Linear(in_features=128, out_features=128, bias=True)
      (2): Linear(in_features=128, out_features=1, bias=True)
    )
  )
  (machine_critic): MLPCritic(
    (linears): ModuleList(
      (0): Linear(in_features=128, out_features=128, bias=True)
      (1): Linear(in_features=128, out_features=128, bias=True)
      (2): Linear(in_features=128, out_features=2, bias=True)
    )
  )
), Global_Critic: self.global_critic=Global_Critic_JointAction_GAT(
  (encoder): Encoder(
    (feature_extract): GraphCNN(
      (mlps): ModuleList(
        (0): MLP(
          (linears): ModuleList(
            (0): Linear(in_features=12, out_features=128, bias=True)
            (1): Linear(in_features=128, out_features=128, bias=True)
            (2): Linear(in_features=128, out_features=128, bias=True)
          )
          (batch_norms): ModuleList(
            (0): BatchNorm1d(128, eps=1e-05, momentum=0.1, affine=True, track_running_stats=True)
            (1): BatchNorm1d(128, eps=1e-05, momentum=0.1, affine=True, track_running_stats=True)
          )
        )
        (1): MLP(
          (linears): ModuleList(
            (0): Linear(in_features=128, out_features=128, bias=True)
            (1): Linear(in_features=128, out_features=128, bias=True)
            (2): Linear(in_features=128, out_features=128, bias=True)
          )
          (batch_norms): ModuleList(
            (0): BatchNorm1d(128, eps=1e-05, momentum=0.1, affine=True, track_running_stats=True)
            (1): BatchNorm1d(128, eps=1e-05, momentum=0.1, affine=True, track_running_stats=True)
          )
        )
      )
      (bn): BatchNorm1d(12, eps=1e-05, momentum=0.1, affine=True, track_running_stats=True)
      (batch_norms): ModuleList(
        (0): BatchNorm1d(128, eps=1e-05, momentum=0.1, affine=True, track_running_stats=True)
        (1): BatchNorm1d(128, eps=1e-05, momentum=0.1, affine=True, track_running_stats=True)
      )
    )
  )
  (bn): BatchNorm1d(128, eps=1e-05, momentum=0.1, affine=True, track_running_stats=True)
  (m_fea_1_fcl): Linear(in_features=6, out_features=128, bias=False)
  (m_fea_2_fcl): Linear(in_features=8, out_features=128, bias=False)
  (activation): ELU(alpha=1.0)
  (gat_layer): GATLayer(
    (leakyrelu): LeakyReLU(negative_slope=0.2)
    (softmax): Softmax(dim=1)
  )
  (fcl_pooling): Linear(in_features=128, out_features=128, bias=False)
  (critic): MLPCritic(
    (linears): ModuleList(
      (0): Linear(in_features=256, out_features=128, bias=True)
      (1): Linear(in_features=128, out_features=128, bias=True)
      (2): Linear(in_features=128, out_features=4, bias=True)
    )
  )
) 
[2025-05-11 18:12:26] - Training/ppo/esa/network_architecture: Operation_Actor: self.esa_job_actor=esa_Operation_Actor_Critic(
  (encoder): Encoder(
    (feature_extract): GraphCNN(
      (mlps): ModuleList(
        (0): MLP(
          (linears): ModuleList(
            (0): Linear(in_features=12, out_features=128, bias=True)
            (1): Linear(in_features=128, out_features=128, bias=True)
            (2): Linear(in_features=128, out_features=128, bias=True)
          )
          (batch_norms): ModuleList(
            (0): BatchNorm1d(128, eps=1e-05, momentum=0.1, affine=True, track_running_stats=True)
            (1): BatchNorm1d(128, eps=1e-05, momentum=0.1, affine=True, track_running_stats=True)
          )
        )
        (1): MLP(
          (linears): ModuleList(
            (0): Linear(in_features=128, out_features=128, bias=True)
            (1): Linear(in_features=128, out_features=128, bias=True)
            (2): Linear(in_features=128, out_features=128, bias=True)
          )
          (batch_norms): ModuleList(
            (0): BatchNorm1d(128, eps=1e-05, momentum=0.1, affine=True, track_running_stats=True)
            (1): BatchNorm1d(128, eps=1e-05, momentum=0.1, affine=True, track_running_stats=True)
          )
        )
      )
      (bn): BatchNorm1d(12, eps=1e-05, momentum=0.1, affine=True, track_running_stats=True)
      (batch_norms): ModuleList(
        (0): BatchNorm1d(128, eps=1e-05, momentum=0.1, affine=True, track_running_stats=True)
        (1): BatchNorm1d(128, eps=1e-05, momentum=0.1, affine=True, track_running_stats=True)
      )
    )
  )
  (o_policy): MLPActor(
    (linears): ModuleList(
      (0): Linear(in_features=384, out_features=128, bias=True)
      (1): Linear(in_features=128, out_features=128, bias=True)
      (2): Linear(in_features=128, out_features=1, bias=True)
    )
  )
  (job_critic): MLPCritic(
    (linears): ModuleList(
      (0): Linear(in_features=128, out_features=128, bias=True)
      (1): Linear(in_features=128, out_features=128, bias=True)
      (2): Linear(in_features=128, out_features=4, bias=True)
    )
  )
), Machine_Actor: self.esa_machine_actor_gcn=esa_Machine_Actor(
  (bn): BatchNorm1d(128, eps=1e-05, momentum=0.1, affine=True, track_running_stats=True)
  (m_fea_1_fcl): Linear(in_features=6, out_features=128, bias=False)
  (m_fea_2_fcl): Linear(in_features=8, out_features=128, bias=False)
  (activation): ELU(alpha=1.0)
  (gat_layer): GATLayer(
    (leakyrelu): LeakyReLU(negative_slope=0.2)
    (softmax): Softmax(dim=1)
  )
  (fcl_pooling): Linear(in_features=128, out_features=128, bias=False)
  (m_policy): MLPActor(
    (linears): ModuleList(
      (0): Linear(in_features=512, out_features=128, bias=True)
      (1): Linear(in_features=128, out_features=128, bias=True)
      (2): Linear(in_features=128, out_features=1, bias=True)
    )
  )
  (machine_critic): MLPCritic(
    (linears): ModuleList(
      (0): Linear(in_features=128, out_features=128, bias=True)
      (1): Linear(in_features=128, out_features=128, bias=True)
      (2): Linear(in_features=128, out_features=2, bias=True)
    )
  )
) 
[2025-05-11 18:12:26] - Testing/12800ins-ppo: sample=1, Obj=728.8458596410267/MIP=629.7166456298773, mk=487.41970507342575/MIP=370.93404461036727, pt=524.0186734742431/MIP=527.091346363244, it=670.1718465372921/MIP=592.3161758430091, tt=281.00884803521126/MIP=167.90009451614574 
[2025-05-11 18:12:26] - Testing/P-G: sample=1, Obj=727.9953330913095/MIP=629.7166456298773, mk=552.359023031114/MIP=370.93404461036727, pt=548.6912869921828/MIP=527.091346363244, it=568.9019098343765/MIP=592.3161758430091, tt=300.0722257412008/MIP=167.90009451614574 
…
